…
2025-11-25 20:11:31.201285: I tensorflow/stream_executor/cuda/cuda_diagnostics.cc:176] hostname: DESKTOP-SRB37LL
2025-11-25 20:11:31.202118: I tensorflow/core/platform/cpu_feature_guard.cc:193] This TensorFlow binary is optimized with oneAPI Deep Neural Network Library (oneDNN) to use the following CPU instructions in performance-critical operations:  AVX AVX2
To enable them in other operations, rebuild TensorFlow with the appropriate compiler flags.
Model: "sequential"
_________________________________________________________________
 Layer (type)                Output Shape              Param #   
=================================================================
 conv2d (Conv2D)             (None, 222, 222, 32)      896       
                                                                 
 max_pooling2d (MaxPooling2D  (None, 111, 111, 32)     0         
 )                                                               
                                                                 
 conv2d_1 (Conv2D)           (None, 109, 109, 64)      18496     
                                                                 
 max_pooling2d_1 (MaxPooling  (None, 54, 54, 64)       0         
 2D)                                                             
                                                                 
 conv2d_2 (Conv2D)           (None, 52, 52, 128)       73856     
                                                                 
 max_pooling2d_2 (MaxPooling  (None, 26, 26, 128)      0         
 2D)                                                             
                                                                 
 flatten (Flatten)           (None, 86528)             0         
                                                                 
 dense (Dense)               (None, 256)               22151424  
                                                                 
 dropout (Dropout)           (None, 256)               0         
                                                                 
 dense_1 (Dense)             (None, 1)                 257       
                                                                 
=================================================================
Total params: 22,244,929
Trainable params: 22,244,929
Non-trainable params: 0
_________________________________________________________________
Epoch 1/25
84/84 [==============================] - 59s 690ms/step - loss: 0.6843 - accuracy: 0.6307 - val_loss: 0.6147 - val_accuracy: 0.6561
…
